Week09/26932504_DQN.pt (torch, 72037 bytes, 6 tensors)

layers.0.weight f4 [128, 4]
-0.17877306 -0.07985123 0.0019246514 -0.14560057 -0.08574093 0.24734765 -0.7403984 -0.005743002
0.05896434 0.1232129 3.8743649 0.33361337 0.76951826 0.24555583 -0.38391632 -0.3455049
-0.83866215 0.04014109 -0.11417651 0.05699239 0.41607112 -0.07834817 -0.8079616 0.4332526
0.7891619 0.0956684 -1.1777809 0.00036423156 0.3743271 -0.19750124 0.20076838 -0.073099576
-0.5016148 0.106843986 -0.2983805 -0.45206752 0.7968051 0.3148129 0.430647 0.09724317
0.16055691 -0.20070057 -1.0437126 -0.1116047 -0.21954611 0.1727368 1.2330003 -0.71441287
0.655222 0.5895727 0.5065054 0.120242655 -0.19750905 0.041255686 1.9624463 0.5988838
-0.034487188 -0.27302238 -0.7717615 -0.3237376 0.03513371 -0.21112832 0.54536664 -0.04297305
-0.008386071 -0.21396461 -2.1094441 -0.50114685 -0.36936304 0.19026347 0.13961631 -1.0908612
-0.8934441 0.8473638 -0.4670944 0.46008116 0.23287286 -0.4786485 -0.46009278 -0.36560798
-0.06077641 0.04200905 -2.817185 -0.079953305 -0.69300807 0.5123227 0.048398882 0.091289304
-0.53494614 0.06956466 0.79820544 0.030555867 -0.7407131 -0.22186328 -1.9036348 -0.28563035
-0.32066968 0.26971003 1.2412094 0.2793442 -0.30585352 -0.53652686 0.054507114 -0.005929504
-0.43247598 1.0714939 -0.59817773 0.61632746 0.28448394 -0.45869395 -1.2968729 -0.5136028
-0.45586464 0.22288425 3.0784657 0.57012635 -0.23252495 -0.10019338 0.95957434 0.103367545
-0.42423314 -0.17354406 1.5199671 -0.59263366 0.06079262 0.013777846 -3.2823837 -0.116322026
0.19427477 0.027843278 -0.35574475 0.06424118 -0.39409056 0.010418349 2.1130044 0.30417112
0.28867134 -0.0078590065 -0.2603226 0.21421334 -0.113638364 0.27729502 0.05693222 0.020104287
0.1510256 -0.31727874 -0.77921516 0.44061112 -0.15988924 0.16848995 0.6453994 0.152469
0.370904 0.6211695 -0.67787635 0.20808579 -0.5703175 -0.21069652 0.5125694 -0.044781715
0.57109445 -0.046121623 1.7383766 0.29345554 0.048570428 -0.16215849 -1.2886567 -0.25646573
0.3012444 0.16609277 1.3909295 0.13585177 0.10579181 0.6086134 2.2545736 0.549883
0.23804374 -0.24185067 -1.7573353 -0.60432607 -1.0252007 -0.1700936 -0.4125716 0.29463536
-0.0672953 0.06656505 0.1813759 -0.080846295 0.939064 -0.3904586 0.46811876 -0.11454042
0.19843829 0.2827825 1.7342689 0.22651593 -1.051487 0.26439127 -0.06467647 0.29249987
-0.2873265 0.2424129 0.25889787 0.20000476 0.2891169 0.40637654 -1.4296721 -0.038581453
-0.9628219 -0.17240156 1.0180707 -0.12884223 0.13221161 0.13903011 -0.4362676 0.0069886986
-0.028015966 0.24482372 -0.29118997 0.16783156 0.3118627 -0.049343146 -0.1576523 0.048477016
-0.12199343 0.34849113 1.9304148 0.93753195 -0.04029468 -0.41932365 -1.2263091 -0.8601071
-0.8823644 -0.17347328 0.011666348 -0.4670709 0.29239368 -0.17073058 -3.2605383 -0.4365541
0.35407785 -0.26185638 -2.9882646 -0.61250263 0.04658342 -0.09821212 -1.0621072 -0.07755842
1.2478901 -0.36143705 0.27027872 -0.49653375 0.38342482 0.3645949 -0.27517852 0.36229312
00000000: 4910 37be 0b89 a3bd 9644 fc3a 5118 15be
00000010: f198 afbd b448 7d3e c08a 3dbf cb2f bcbb
00000020: 9784 713d 0b57 fc3d 98f5 7740 5fcf aa3e
00000030: 26ff 443f fd72 7b3e ae90 c4be 05e6 b0be
00000040: 90b2 56bf fc6a 243d 60d5 e9bd da70 693d
00000050: 4607 d53e 0175 a0bd 92d6 4ebf 49d3 dd3e
00000060: 8406 4a3f cbed c33d 86c1 96bf 55f6 be39
00000070: cda7 bf3e c43d 4abe 3a96 4d3e 3bb5 95bd
00000080: d469 00bf 05d1 da3d 54c5 98be 6575 e7be
00000090: 6bfb 4b3f 282f a13e c37d dc3e 6d27 c73d
000000a0: 0869 243e 7384 4dbe 6098 85bf 0191 e4bd
000000b0: b2d0 60be eae1 303e f4d2 9d3f c3e3 36bf
000000c0: a1bc 273f 3dee 163f 57aa 013f c841 f63d
000000d0: d03f 4abe b9fb 283d 7131 fb3f 7350 193f
000000e0: 7042 0dbd 97c9 8bbe 2992 45bf efc0 a5be
000000f0: 5de8 0f3d 0632 58be 269d 0b3f 8204 30bd
00000100: bb65 09bc 8a19 5bbe 2201 07c0 294b 00bf
00000110: 271d bdbe 6dd4 423e 94f7 0e3e 57a1 8bbf
00000120: c1b8 64bf d6ec 583f ff26 efbe c28f eb3e
00000130: 3976 6e3e 6b11 f5be 4891 ebbe f830 bbbe
00000140: aff0 78bd ae11 2c3d c24c 34c0 8fbe a3bd
00000150: fa68 31bf 9527 033f e83d 463d e3f5 ba3d
00000160: 3bf2 08bf eb77 8e3d 3157 4c3f 4c50 fa3c
00000170: 609f 3dbf 2130 63be 4eaa f3bf 243e 92be
00000180: d12e a4be 6f17 8a3e f3df 9e3f 3406 8f3e
00000190: d598 9cbe d359 09bf da42 5f3d 494c c2bb
000001a0: 7e6d ddbe b626 893f 2d22 19bf a3c7 1d3f
000001b0: e1a7 913e efd9 eabe eeff a5bf 797b 03bf
000001c0: 1767 e9be c53b 643e 9505 4540 cdf3 113f
000001d0: 051b 6ebe 3032 cdbd aaa6 753f 5db2 d33d
000001e0: 1635 d9be 89b5 31be 488e c23f d7b6 17bf
000001f0: af01 793d 79bc 613c 9312 52c0 3e3a eebd
00000200: f7ef 463e 9617 e43c 2d24 b6be e190 833d
00000210: 3dc6 c9be b9b1 2a3c 773b 0740 51bc 9b3e
00000220: bbcc 933e 10c3 00bc 0149 85be be5a 5b3e
00000230: 3bbb e8bd 9df9 8d3e c231 693d bfb1 a43c
00000240: 74a6 1a3e 5c72 a2be a57a 47bf c897 e13e
00000250: 01ba 23be a188 2c3e e538 253f d520 1c3e
00000260: 21e7 bd3e f704 1f3f 4e89 2dbf 7114 553e
00000270: 5400 12bf d4c0 57be c037 033f 086d 37bd
00000280: 3f33 123f 07ea 3cbd 2083 de3f ce3f 963e
00000290: c9f1 463d e00c 26be b4f2 a4bf 7a4f 83be
000002a0: b53c 9a3e 3914 2a3e fa09 b23f ba1c 0b3e
000002b0: 60a9 d83d 16ce 1b3f ef4a 1040 22c5 0c3f
000002c0: bdc1 733e b4a7 77be 5df0 e0bf 1db5 1abf
000002d0: c739 83bf 042d 2ebe 963c d3be 72da 963e
000002e0: 1ed2 89bd 4253 883d 9bba 393e be92 a5bd
000002f0: 8066 703f 31ea c7be 43ad ef3e 2b94 eabd
00000300: 6833 4b3e dec8 903e 86fc dd3f cbf3 673e
00000310: 2097 86bf 4b5e 873e 1975 84bd 8bc2 953e
00000320: 761c 93be 163b 783e 438e 843e 0cce 4c3e
00000330: 2107 943e 9610 d03e 7fff b6bf 9607 1ebd
00000340: 7f7b 76bf 098a 30be 2450 823f 38ef 03be
00000350: 7b62 073e e95d 0e3e 785e dfbe 7401 e53b
00000360: bd81 e5bc 12b3 7a3e da16 95be 09dc 2b3e
00000370: 78ac 9f3e 0a1c 4abd 9b6f 21be d68f 463d
00000380: b1d7 f9bd 6e6d b23e d517 f73f 1802 703f
00000390: 090c 25bd 97b1 d6be b2f7 9cbf fb2f 5cbf
000003a0: a2e2 61bf fba2 31be 3624 3f3c eb23 efbe
000003b0: a0b4 953e ffd3 2ebe a9ac 50c0 0584 dfbe
000003c0: b149 b53e 0a12 86be ba3f 3fc0 f9cc 1cbf
000003d0: 42ce 3e3d 7023 c9bd 21f3 87bf f3d6 9ebd
000003e0: ddba 9f3f 470e b9be f961 8a3e ac39 febe
000003f0: 4250 c43e 2fac ba3e 33e4 8cbe 7c7e b93e

layers.0.bias f4 [128]
0.28238016 -0.5757848 -0.623952 -0.16196215 0.21639858 -0.26377225 -0.39142054 0.4859277
-1.008635 -1.0091006 -0.62747145 0.0031690681 -0.48926502 -0.20942889 0.22337553 0.24542807
-0.66712785 -0.08695547 -0.9725281 -0.003928797 -0.5215849 -0.8939375 0.04036998 -0.13846247
0.054970387 -0.32706133 -0.12724201 0.1776638 -1.0198593 0.19009618 0.06334602 -0.6888427
-0.83904696 -0.8226709 0.5700286 0.45646545 -0.060351346 -0.7114593 -0.48409522 -0.5525123
0.15151636 -0.84750277 -0.23795742 -0.46404114 0.054401323 -0.25063953 0.39565492 -0.79268134
-0.2686124 -0.29657075 0.35781792 -0.9988064 0.19908276 0.35548413 0.33409715 0.49637347
-1.0672059 0.111473106 -0.4215664 -0.9000695 -0.7338551 -0.39321795 0.18145946 -0.8945952
-0.11853414 0.40091428 -0.46232477 -0.6053562 0.35214192 0.34700733 -0.6308755 -0.53573847
-0.118890755 0.3529623 0.33632368 0.38524276 -1.0952884 0.114944674 -0.051468465 0.1378605
-0.42108262 0.4941421 0.46835166 -0.6213474 0.12347444 -0.098950036 -0.6347252 -0.49866018
-0.8630246 -0.5061669 -0.22837023 -0.15262888 -0.7113829 -0.73888826 -1.1331811 -0.6506313
0.21462269 -1.3790404 0.253127 -0.6355937 -0.7654294 0.12493005 -0.30146533 -0.6322111
-0.5851353 -0.4768295 0.38338903 -0.5510487 -0.06653735 -0.7144946 -0.8025339 -0.71624064
-0.10993118 -0.4371509 -0.2779361 -0.66913676 -0.73383373 -0.6770792 0.17387614 0.41506675
0.24389109 0.37501973 0.41379002 -0.3256543 -0.041357927 0.2250518 -0.20792189 -0.50019014
00000000: 2294 903e a266 13bf 51bb 1fbf 68d9 25be
00000010: 9797 5d3e 280d 87be 4668 c8be 84cb f83e
00000020: f41a 81bf 352a 81bf f8a1 20bf 24b0 4f3b
00000030: f280 fabe 8774 56be 8ebc 643e 7f51 7b3e
00000040: e4c8 2abf b615 b2bd 9af7 78bf 23bd 80bb
00000050: 9786 05bf 17d9 64bf fe5a 253d 1bc9 0dbe
00000060: a128 613d 9574 a7be bb4b 02be 80ed 353e
00000070: c08a 82bf 93a8 423e 8fbb 813d ff57 30bf
00000080: c8cb 56bf 8f9a 52bf 65ed 113f d7b5 e93e
00000090: f932 77bd 3222 36bf 54db f7be 7271 0dbf
000000a0: 1b27 1b3e f1f5 58bf 1cab 73be cd96 edbe
000000b0: ecd3 5e3d d353 80be 4893 ca3e 2aed 4abf
000000c0: 9187 89be 1fd8 97be e933 b73e c7b1 7fbf
000000d0: 5adc 4b3e 0402 b63e c80e ab3e aa24 fe3e
000000e0: 349a 88bf 034c e43d 8dd7 d7be f46a 66bf
000000f0: eedd 3bbf dd53 c9be 82d0 393e 3104 65bf
00000100: 07c2 f2bd a344 cd3e d5b5 ecbe a0f8 1abf
00000110: f24b b43e f2aa b13e 0f81 21bf 2826 09bf
00000120: ff7c f3bd 79b7 b43e 9e32 ac3e 8a3e c53e
00000130: 6932 8cbf 1d68 eb3d 99d0 52bd 4e2b 0d3e
00000140: 2498 d7be 3100 fd3e cacb ef3e a010 1fbf
00000150: 2be0 fc3d 51a6 cabd 5a7d 22bf 6350 ffbe
00000160: 2eef 5cbf 2794 01bf e3d9 69be bf4a 1cbe
00000170: 311d 36bf c827 3dbf 140c 91bf c68f 26bf
00000180: 0dc6 5b3e 6584 b0bf dd99 813e 45b6 22bf
00000190: 2ef3 43bf 53db ff3d aa59 9abe 96d8 21bf
000001a0: 6dcb 15bf ff22 f4be 914b c43e 8711 0dbf
000001b0: bc44 88bd 1ee9 36bf dd72 4dbf 8c5b 37bf
000001c0: 9923 e1bd 3ed2 dfbe a44d 8ebe 8c4c 2bbf
000001d0: 87dc 3bbf 1055 2dbf 960c 323e a183 d43e
000001e0: 96be 793e 9602 c03e 49dc d33e 29bc a6be
000001f0: ee66 29bd fb73 663e 7ae9 54be 760c 00bf

layers.2.weight f4 [128, 128]
-0.030910367 0.11344665 -1.0307778 -0.037509628 0.2931402 0.3239255 0.3218573 0.14471096
-0.8997509 -1.7011653 0.2744185 0.35363343 -0.111399464 -0.28091934 -0.093940124 -0.14086951
-0.45044756 -0.05239008 -0.8448183 -0.24582133 -4.756085 -0.15259059 -0.01383575 -1.270331
0.37411112 -0.25184488 -0.57617205 0.103850804 -1.1179882 -0.16031891 -0.19368677 -4.3810453
0.30945557 -0.15266995 0.2697247 0.11442672 0.2169375 -0.20732623 -0.45963496 -4.67987
-0.31216094 -1.4947059 -1.0253109 -0.8982241 0.3696731 0.05491449 -0.030978544 -1.61701
-1.4609526 -0.62479764 0.15563303 -0.6030271 -0.12542205 0.13425002 0.1917647 0.2549372
-0.47942045 -0.18834719 -0.08884366 -3.1650434 0.01760327 0.020661633 -0.20554976 -0.50904757
0.15507561 0.14198287 0.06510456 -0.19061252 0.40061843 0.2603458 -1.1849812 -1.2774504
0.51159745 0.05642521 0.26275107 0.26649854 -0.82486504 -0.096032746 0.018384883 0.12018231
-0.7138709 0.091407605 0.2867407 -0.7598224 -0.1260932 -0.14775743 -2.4329429 -0.76298374
0.17766488 0.5025446 -0.58682954 0.09986835 0.7091681 0.059704147 -1.2147888 -0.06681542
0.20311733 -1.7865884 0.2207878 -0.3563969 0.11615363 0.18327644 -1.559348 0.10324903
-2.3257759 -1.0031803 0.25335908 -0.5098268 -0.061342873 -5.339894 -0.64980334 -1.0358666
0.08434747 -0.31694993 -1.0057197 -6.2819805 -1.1600893 -1.7475528 0.11506138 0.03431829
-0.3762308 0.04617809 0.11813589 -0.124044366 0.15805951 0.13087967 0.29061064 -2.1512568
-0.084581606 0.040734123 0.026891256 -0.07089795 -0.09274487 -0.053717587 0.016874742 0.009133271
-0.042459425 -0.09059183 -0.09784967 0.011498891 0.006749017 0.01927097 0.002990946 -0.09302625
-0.098362245 -0.10870057 0.03841263 -0.045644946 -0.04220956 -0.10335567 -0.022613287 -0.12974857
-0.0716413 -0.011170177 -0.09582144 -0.00314835 0.05387789 -0.07736394 0.018410413 0.021237053
-0.08159398 -0.0048842733 -0.03371845 -0.055911526 0.04114376 -0.054300748 -0.073679276 0.00023515425
0.0021753726 -0.09765275 -0.072650656 -0.0881256 0.0098326 -0.08573745 0.000786477 -0.08831744
-0.08787515 -0.012449002 0.07813623 -0.011482066 -0.05289117 -0.057187833 0.012738706 -0.05358902
0.058160447 -0.037507433 -0.0013474368 -0.04485236 0.017795904 -0.09564658 -0.076889075 -0.04961414
-0.045995355 -0.03147541 0.04090695 -0.07405951 -0.077694744 0.038141705 0.024313306 0.018600605
0.0023650446 -0.022327663 -0.040678144 -0.027853688 -0.039613523 -0.05223108 -0.06249936 -0.025321387
-0.07392116 -0.0796479 -0.0996333 0.065521054 0.0718894 0.039849557 -0.03471648 0.013974167
0.027101692 -0.021843148 0.036718935 -0.015445808 0.01993316 0.074862584 -0.08342699 -0.03918982
0.056854453 0.063192375 -0.033532653 0.017058246 -0.06142176 -0.020434028 0.07103151 -0.015034708
0.00592597 0.040236644 -0.06783785 -0.008538681 -0.057204932 -0.033810336 0.03377679 -0.019947514
-0.10859323 0.03952226 0.021867309 0.04906656 0.0008811633 0.02472468 -0.0372985 -0.067880504
0.014242814 -0.030386856 0.05146778 -0.0075476733 -0.01425151 0.037128784 -0.052826338 -0.087547526
00000000: bd37 fdbc b856 e83d 87f0 83bf b2a3 19bd
00000010: 7916 963e 90d9 a53e 7bca a43e 1c2f 143e
00000020: 1356 66bf c9bf d9bf 9580 8c3e 710f b53e
00000030: 6725 e4bd a9d4 8fbe ae63 c0bd 1940 10be
00000040: 10a1 e6be fb96 56bd 0346 58bf 96b8 7bbe
00000050: d931 98c0 b540 1cbe 57af 62bc 359a a2bf
00000060: 7e8b bf3e d0f1 80be 0380 13bf bbaf d43d
00000070: 3d1a 8fbf a42a 24be d355 46be 8631 8cc0
00000080: f670 9e3e 8355 1cbe 5b19 8a3e 8e58 ea3d
00000090: dd24 5e3e 544d 54be 4655 ebbe 7fc1 95c0
000000a0: 8fd3 9fbe 8652 bfbf 633d 83bf 04f2 65bf
000000b0: cb45 bd3e 04ee 603d b7c6 fdbc 2ffa cebf
000000c0: 7f00 bbbf bdf2 1fbf 445e 1f3e fc5f 1abf
000000d0: a36e 00be d678 093e f75d 443e 2187 823e
000000e0: 9976 f5be 16de 40be aaf3 b5bd 1290 4ac0
000000f0: bc34 903c 9642 a93c a37b 52be f150 02bf
00000100: 24cc 1e3e f563 113e 8a55 853d ee2f 43be
00000110: dc1d cd3e 0b4c 853e 77ad 97bf 7f83 a3bf
00000120: 0df8 023f 1f1e 673d 4f87 863e 7f72 883e
00000130: 5b2a 53bf d1ac c4bd e59b 963c 2522 f63d
00000140: 3ec0 36bf e933 bb3d adcf 923e b983 42bf
00000150: 931e 01be b94d 17be 56b5 1bc0 e752 43bf
00000160: c8ed 353e c3a6 003f 763a 16bf c787 cc3d
00000170: 0a8c 353f 568c 743d 337e 9bbf 86d6 88bd
00000180: fdfd 4f3e eeae e4bf 3216 623e a879 b6be
00000190: f4e1 ed3d d2ac 3b3e b798 c7bf 3a74 d33d
000001a0: 83d9 14c0 3668 80bf 48b8 813e 0284 02bf
000001b0: aa42 7bbd 69e0 aac0 8359 26bf 4797 84bf
000001c0: 5ebe ac3d 4347 a2be 6cbb 80bf fc05 c9c0
000001d0: ce7d 94bf cfaf dfbf 4da5 eb3d 5691 0c3d
000001e0: 53a1 c0be 3d25 3d3d 3bf1 f13d f90a febd
000001f0: 5ada 213e 5205 063e ebca 943e 31ae 09c0
00000200: 1f39 adbd d3d8 263d 0d4b dc3c f232 91bd
00000210: 06f1 bdbd f906 5cbd e63c 8a3c b7a3 153c
00000220: efe9 2dbd 3688 b9bd 6865 c8bd d865 3c3c
00000230: dc26 dd3b 27de 9d3c bf03 443b 8c84 bebd
00000240: 2572 c9bd 689e debd 9056 1d3d 32f6 3abd
00000250: eee3 2cbd 23ac d3bd 803f b9bc cfdc 04be
00000260: adb8 92bd 1e03 37bc 083e c4bd 8c54 4ebb
00000270: 10af 5c3d fc70 9ebd 6fd1 963c 54f9 ad3c
00000280: bf1a a7bd 410c a0bb 5c1c 0abd 7c03 65bd
00000290: 5c86 283d 766a 5ebd 29e5 96bd bd93 7639
000002a0: b290 0e3b 2afe c7bd dec9 94bd 327b b4bd
000002b0: ea18 213c 1e97 afbd 942b 4e3a c6df b4bd
000002c0: e3f7 b3bd e6f6 4bbc e305 a03d 461f 3cbc
000002d0: 69a4 58bd ca3d 6abd 01b6 503c 2980 5bbd
000002e0: a639 6e3d 65a1 19bd 7a9c b0ba 1cb7 37bd
000002f0: b7c8 913c 5be2 c3bd 0578 9dbd 3238 4bbd
00000300: a065 3cbd 5cec 00bd 0c8e 273d 83ac 97bd
00000310: 6c1e 9fbd 7a3a 1c3d b32c c73c 4c60 983c
00000320: ddfe 1a3b 81e8 b6bc 209e 26bd 6b2d e4bc
00000330: ca41 22bd 42f0 55bd 54ff 7fbd cc6e cfbc
00000340: fa63 97bd 701e a3bd 8b0c ccbd e72f 863d
00000350: c03a 933d 4a39 233d de32 0ebd e8f3 643c
00000360: 5e04 de3c 67f0 b2bc 9866 163d 6a10 7dbc
00000370: de4a a33c 8e51 993d c5db aabd 8185 20bd
00000380: 37e0 683d 016b 813d 8959 09bd bcbd 8b3c
00000390: 6295 7bbd 4365 a7bc f878 913d 2354 76bc
000003a0: a42e c23b 2ecf 243d 92ee 8abd d3e5 0bbc
000003b0: b84f 6abd b57c 0abd 8859 0a3d f868 a3bc
000003c0: 2166 debd 18e2 213d 1223 b33c 04fa 483d
000003d0: defd 663a 6a8b ca3c 50c6 18bd ef04 8bbd
000003e0: b15a 693c dbed f8bc e1cf 523d 7952 f7bb
000003f0: 2a7f 69bc 5a14 183d 6e60 58bd 1e4c b3bd

layers.2.bias f4 [128]
0.36043468 -0.016510975 -0.1903814 -0.049698044 0.4254931 0.33386603 0.33706725 0.016706087
0.34165412 -0.05502748 -0.065595545 -0.051289838 -0.1027867 -0.09273968 -0.0026616515 0.00057115103
0.34180364 0.46915883 -0.0823813 0.2909841 0.3647763 -0.04802789 0.034056317 -0.03544588
0.48931617 0.045012172 -0.10166975 0.037888814 -0.0029306805 -0.0009737263 0.3394861 -0.030627487
-0.021589091 0.39772654 0.021512838 -0.14430673 0.49844792 0.0029409677 -0.09017661 0.30172738
0.37639716 -0.12758559 -0.11695715 0.4523182 -0.008508713 -0.03873178 0.44345927 0.04476745
0.42612848 -0.1150238 -0.010092781 0.3945323 -0.029329648 0.46051493 -0.115351394 -0.06444391
0.04471459 -0.014656117 -0.08783183 0.46489754 0.34854138 -0.023109438 -0.06122016 -0.026730008
0.20835182 0.37315556 -0.24048355 0.029524753 -0.02050598 0.46317515 0.45095652 0.39353696
-0.04441521 0.08268665 -0.012884129 -0.41331318 0.38603407 0.045089494 -0.050615247 0.5593199
-0.021557951 0.53078216 0.5167492 0.42143884 -0.06551435 -0.058108825 0.41866598 0.4641654
-0.07285114 0.43201628 0.026849668 -0.05590255 -0.088349916 0.34206507 0.4282933 0.43314597
-0.049375195 0.37328354 -0.021264784 0.48696446 -0.25299942 0.31049398 0.50335443 0.4655108
-0.07682518 0.3997573 -0.09913643 -0.059243493 -0.029233743 -0.07243576 0.3607613 0.034531657
-0.07273858 -0.10801145 0.4178223 -0.025722813 -0.08878053 -0.039933566 -0.081271976 0.3089168
-0.029683907 -0.09435196 -0.054430272 -0.002282409 -0.07296307 0.4716153 0.43593186 -0.006413929
00000000: e58a b83e 0642 87bc 57f3 42be 2d90 4bbd
00000010: 3bda d93e 7df0 aa3e 1494 ac3e 34db 883c
00000020: 4aed ae3e 7f64 61bd f556 86bd 4b15 52bd
00000030: d581 d2bd 4dee bdbd 1a6f 2ebb 4cb9 153a
00000040: e300 af3e 9635 f03e 87b7 a8bd defb 943e
00000050: f6c3 ba3e e5b8 44bd a37e 0b3d b32f 11bd
00000060: a687 fa3e af5e 383d 3b38 d0bd 4d31 1b3d
00000070: a910 40bb aa41 7fba 1fd1 ad3e 7fe6 fabc
00000080: 9bdb b0bc d0a2 cb3e b13b b03c 25c5 13be
00000090: 9134 ff3e 40bd 403b 84ae b8bd 037c 9a3e
000000a0: 21b7 c03e cca5 02be 3b87 efbd 4096 e73e
000000b0: 2168 0bbc 37a5 1ebd 180d e33e 135e 373d
000000c0: 832d da3e 9991 ebbd 315c 25bc 2300 ca3e
000000d0: bb44 f0bc 9dc8 eb3e 5a3d ecbd 2bfb 83bd
000000e0: a526 373d 3620 70bc 2de1 b3bd 0d07 ee3e
000000f0: 0474 b23e 0150 bdbc fec1 7abd e4f8 dabc
00000100: 2e5a 553e 3f0e bf3e 5241 76be e5dd f13c
00000110: 28fc a7bc 4b25 ed3e c6e3 e63e ad7d c93e
00000120: b9ec 35bd 9e57 a93d f417 53bc c99d d3be
00000130: 42a6 c53e c3af 383d ef51 4fbd 972f 0f3f
00000140: 4d9a b0bc 57e1 073f ad49 043f d5c6 d73e
00000150: 632c 86bd 8503 6ebd 635b d63e 16a7 ed3e
00000160: fa32 95bd 3d31 dd3e d6f3 db3c 13fa 64bd
00000170: cdf0 b4bd 2723 af3e 4249 db3e 4fc5 dd3e
00000180: a53d 4abd 051f bf3e 7c33 aebc 6853 f93e
00000190: 2489 81be 11f9 9e3e d6db 003f 6e57 ee3e
000001a0: 8556 9dbd fdac cc3e 0a08 cbbd 4ea9 72bd
000001b0: 9a7b efbc 3359 94bd b5b5 b83e 1171 0d3d
000001c0: f7f7 94bd 1b35 ddbd ceec d53e a6b8 d2bc
000001d0: 91d2 b5bd 6191 23bd ec71 a6bd 582a 9e3e
000001e0: aa2b f3bc 9a3b c1bd 47f2 5ebd 7894 15bb
000001f0: a96d 95bd 9077 f13e 7632 df3e f02b d2bb

layers.4.weight f4 [2, 128]
1.4303207 -0.057956167 -0.34594795 -0.082995705 1.4679376 1.0130703 0.91745037 -0.008130243
1.1937835 0.020430988 -0.014788183 -0.06813347 -0.072305486 0.005818566 -0.048163846 -0.048328154
0.70198035 1.4172126 0.04567103 1.0984652 1.0515695 0.20297424 -0.04159215 -0.00104056
1.0131841 -0.023020418 -0.05752416 -0.050665833 -0.032066155 0.00284282 1.0307853 -0.06408517
0.009713665 2.3558145 -0.015821878 -0.8915447 1.0685552 0.0022996287 -0.04067258 1.1696965
1.0489485 -0.030823205 0.03398439 0.6763362 -0.032150693 0.010483176 0.8136173 0.02272842
0.6860762 -0.08440959 0.009023908 1.3646183 0.05539783 1.0940678 -0.007546639 -0.027431035
0.064294845 -0.01584786 -0.065720506 0.9430257 0.13812114 -0.03635283 -0.028144563 -0.009417059
-1.618969 1.0944325 -0.17917994 -0.045919664 -0.016149767 1.0448332 1.0855299 1.0538043
0.006697487 -1.2759088 0.02578522 -1.1981401 1.3955262 -0.07660709 -0.043740906 1.6284515
-0.06365577 1.1493994 0.9347351 1.337137 0.646351 0.070350915 1.3872918 1.1065549
0.014116825 1.4277973 -0.017261984 -0.034079913 0.034451406 1.3733262 1.3323908 1.0767943
-0.07174252 1.4322228 0.03331422 1.1346742 -3.6007154 0.9778781 1.06948 1.0163765
0.022098267 1.0136924 0.03072723 -0.0038123394 0.026973238 0.050212722 0.743071 -0.0124702435
0.0130952215 -0.0014251904 1.2722373 -0.004128934 -0.010294316 -2.8239367 -0.036751173 1.2809416
-0.066900685 -0.03549059 0.0012384461 -0.016806517 -2.447081 1.3214024 0.8014962 -0.02768368
0.9949721 -0.052022293 0.6002243 0.001990513 0.8359987 1.330645 1.3049417 0.06626348
1.5088862 0.012815762 -0.029663026 -0.044577528 0.00040022438 0.041933753 0.02496946 0.035027537
1.6747628 -0.4675329 0.029001743 1.2341505 0.88864446 -0.21218462 0.09016129 0.0058092093
1.3972127 -0.011884702 -0.039932463 -0.019432323 0.049593538 -0.0065379953 1.2868439 0.0098382905
-0.07322921 1.1729137 -0.06439889 0.59175515 1.3135597 -0.0756366 -0.027422393 0.727728
1.1800525 0.06945705 0.013771544 1.6062888 0.014202608 0.025555499 1.3529153 -0.06919472
1.3523811 -0.0073204073 0.019482447 -0.77287036 -0.04302105 1.4203703 0.020754777 -0.020632232
-0.01552386 -0.013181572 -0.022838086 0.613793 1.8889322 0.06688661 0.06601843 -0.040853232
0.48538318 2.1182475 1.0672445 -0.010321551 0.062379733 1.495267 1.8909469 1.5272925
-0.07289148 1.7706865 -0.050050735 0.94998103 1.0643001 -0.011044622 0.025796998 1.5667408
-0.037741162 1.4180489 1.3438241 1.1977932 2.1547458 -0.008061015 1.5353472 1.4000571
0.036109675 -0.6897998 -0.038864013 -0.046674635 0.0009302715 0.8629065 0.9171049 1.2347933
-0.05245266 -1.1706499 -0.06699802 0.030172989 0.68270993 1.3286136 1.5173751 1.2336895
-0.05474584 1.2224369 -0.04254613 0.034853622 -0.057701875 -0.010427483 1.4893967 -0.018273626
-0.031398688 -0.03139328 1.3283803 -0.060111146 -0.03424779 0.46721926 -0.007528987 -0.9308525
0.0605211 -0.07181972 0.046229634 0.012267093 -1.2779399 1.5607154 0.8749759 -0.039921463
00000000: c014 b73f 7263 6dbd 1720 b1be a7f9 a9bd
00000010: 61e5 bb3f 4aac 813f 07de 6a3f b634 05bc
00000020: e6cd 983f e35e a73c 234a 72bc 9089 8bbd
00000030: e614 94bd aba9 be3b 7447 45bd bef3 45bd
00000040: fcb4 333f 3967 b53f 8c11 3b3d 829a 8c3f
00000050: d499 863f 7bd8 4f3e 885c 2abd 6663 88ba
00000060: 04b0 813f 5195 bcbc 749e 6bbd fa86 4fbd
00000070: cd57 03bd 9b4e 3a3b c6f0 833f 163f 83bd
00000080: 1026 1f3c aac5 1640 e29c 81bc 463c 64bf
00000090: 6bc6 883f 5eb5 163b 4b98 26bd 9db8 953f
000000a0: f243 863f f280 fcbc 3733 0b3d 5f24 2d3f
000000b0: 72b0 03bd a1c1 2b3c 3949 503f f430 ba3c
000000c0: b1a2 2f3f efde acbd 03d9 133c d0ab ae3f
000000d0: d6e8 623d 6a0a 8c3f cc49 f7bb 0db7 e0bc
000000e0: 04ad 833d 5fd3 81bc 7998 86bd 226a 713f
000000f0: a16f 0d3e b4e6 14bd 6d8f e6bc 024a 1abc
00000100: 603a cfbf 5d16 8c3f f27a 37be 4216 3cbd
00000110: 844c 84bc 18bd 853f a5f2 8a3f 0fe3 863f
00000120: 9876 db3b fb50 a3bf 873b d33c a85c 99bf
00000130: 9aa0 b23f 2ee4 9cbd aa29 33bd 1971 d03f
00000140: f55d 82bd 851f 933f cd4a 6f3f 4e27 ab3f
00000150: 4277 253f 2414 903d c792 b13f 97a3 8d3f
00000160: 414a 673c 10c2 b63f 0169 8dbc 6197 0bbd
00000170: eb1c 0d3d 27c9 af3f c88b aa3f 65d4 893f
00000180: beed 92bd 1453 b73f 7e74 083d 013d 913f
00000190: 1f72 66c0 3856 7a3f b8e4 883f a018 823f
000001a0: 6d07 b53c acc0 813f acb7 fb3c 71d8 79bb
000001b0: fbf6 dc3c dbab 4d3d e739 3e3f fe4f 4cbc
000001c0: 578d 563c 74cd baba acd8 a23f 024c 87bb
000001d0: 7ea9 28bc 61bb 34c0 6688 16bd e5f5 a33f
000001e0: 3a03 89bd 955e 11bd 5b53 a23a d2ad 89bc
000001f0: fa9c 1cc0 b723 a93f db2e 4d3f e3c8 e2bc
00000200: 7eb6 7e3f 5415 55bd 4da8 193f 4473 023b
00000210: 0304 563f 9352 aa3f 5408 a73f 26b5 873d
00000220: 2f23 c13f 34f9 513c e0ff f2bc ed96 36bd
00000230: 35d5 d139 bac2 2b3d c18c cc3c 0979 0f3d
00000240: a15e d63f 7960 efbe 1095 ed3c a5f8 9d3f
00000250: 347e 633f ed46 59be 7ba6 b83d 2e5b be3b
00000260: ded7 b23f 0eb8 42bc 3990 23bd 8930 9fbc
00000270: 9822 4b3d ae3c d6bb 4db7 a43f c830 213c
00000280: 32f9 95bd 0922 963f 91e3 83bd 447d 173f
00000290: b922 a83f 5de7 9abd eda4 e0bc 624c 3a3f
000002a0: f60b 973f 7f3f 8e3d 0ba2 613c df9a cd3f
000002b0: 0eb2 683c c459 d13c 542c ad3f f6b5 8dbd
000002c0: d31a ad3f 07e0 efbb a799 9f3c d5da 45bf
000002d0: d736 30bd b2ce b53f ec05 aa3c ed04 a9bc
000002e0: ca57 7ebc 85f7 57bc f016 bbbc 8a21 1d3f
000002f0: 88c8 f13f d9fb 883d ac34 873d b855 27bd
00000300: 2584 f83e 5e91 0740 789b 883f b91b 29bc
00000310: e481 7f3d e964 bf3f 8c0a f23f 527e c33f
00000320: 2148 95bd dba5 e23f 0002 4dbd f531 733f
00000330: fc3a 883f 81f4 34bc 3a54 d33c f68a c83f
00000340: 7a96 1abd a082 b53f 6e02 ac3f 4a51 993f
00000350: 5be7 0940 5912 04bc 4286 c43f 1235 b33f
00000360: bde7 133d b896 30bf df2f 1fbd e72d 3fbd
00000370: 77dd 733a 71e7 5c3f 63c7 6a3f b50d 9e3f
00000380: 9ad8 56bd dbd7 95bf 4236 89bd 582d f73c
00000390: 14c6 2e3f 0310 aa3f 5939 c23f 8ae9 9d3f
000003a0: 2d3d 60bd d078 9c3f da44 2ebd acc2 0e3d
000003b0: cd58 6cbd 09d8 2abc 8da4 be3f 92b2 95bc
000003c0: e99b 00bd 3d96 00bd 5e08 aa3f 1b37 76bd
000003d0: 6947 0cbd 5d37 ef3e b8b5 f6bb 594c 6ebf
000003e0: f9e4 773d 3816 93bd 495b 3d3d ebfb 483c
000003f0: 8993 a3bf 86c5 c73f 6cfe 5f3f b084 23bd

layers.4.bias f4 [2]
0.3391284 0.22088464
00000000: 3da2 ad3e 952f 623e
